models/neural_network.pt (torch, 17033 bytes, 4 tensors)

layer_1.weight f4 [32, 12]
00000000: 2e8f c13e 4e7b 42bf 41cd 12bf b565 f13e
00000010: 9240 12bd 0b62 e23e f49e 13bf a25e 913f
00000020: 79b1 913f 7842 21bf fb93 e43e 9999 69bf
00000030: aadf 34bf 050f 51bf ce9b 89bf cfd9 ea3d
00000040: ff29 86bf 3d83 303f d475 6fbf 3dbe fcbe
00000050: 4c4e 1cbf b841 77bf aaa5 0bbf 5bf0 bfbd
00000060: a1d5 2a3f 339a bfbe fe36 273f e9a6 ecbe
00000070: 92b8 bbbe 4a22 58bf 9af6 ecbe b96e c63e
00000080: 6dee f6be 4411 dfbe e183 f13e f9f1 cd3d
00000090: e32d 5ebe ebaf 16bf b744 b73e 242f e73e
000000a0: 0c0a 423f 8ac0 153e 2cf3 94be 937f 0c3e
000000b0: 28b9 443e 88f3 1cbf 55da 213f d989 f4be
000000c0: b8e1 54bf d8bb c8be d726 5bbf 9945 1e3f
000000d0: b347 44bf ea92 413f 6811 61bf a1f1 0a3f
000000e0: 694b fb3e 4428 edbe 59da 48bf 2706 24bf
000000f0: 6099 fcbd fcdf 2abd 6079 bbbc 1895 903e
00000100: 2c46 57bd 641f a93d c5ae 43be 64a7 a53d
00000110: 385c 5c3e 88f3 1ebd 89d2 33be 6e65 79be
00000120: b5ac bdbe f0d3 d1be 69af 4bbf fc40 3a3f
00000130: 144d 133f 865d 61bf c8b7 3fbf 4fbc 573f
00000140: ce41 353f df6e 3abf 0bba 33bf e317 a6be
00000150: b581 8cbe 043d 90be 6633 85be 51ee f53e
00000160: 94b4 e3be dd4b 48bf 299f 4ebf d0f0 d53e
00000170: 8268 9e3e 4aba 44bf 5c73 45bf 2c08 a73e
00000180: c045 df3b f6be 63be a08e 9cbc a8a1 7f3e
00000190: c0a9 1b3c da4d 4a3e 8255 83bd 3620 223e
000001a0: 908a 83be 502b 0fbe a0fa 8f3e 8871 b93d
000001b0: 0c62 25bf 8fcb 72bf be9a 54be ed26 593f
000001c0: a06f 593f e32c cdbe ee55 77bf f39a 683f
000001d0: 75bd 5f3f 742f 03bf 71d5 54be 82db 4bbf
000001e0: 28dc 813d 4dd8 86be 2328 81be 4006 89be
000001f0: f07f f9bd 2cd7 753e c09f 99bb 5aed 903e
00000200: e888 873d 54fd 98bd d0a6 fb3d 8007 0d3e
00000210: 131f 013f 056e f1be b0d0 dcbe 3dc8 63bf
00000220: fd2f 8dbf f90f 26bf af62 17bf eac7 11bf
00000230: b9f7 05bf dd96 04bf f29b 133f cc50 d2be
00000240: 4019 193e afd7 83be 86a5 febd 1075 4e3d
00000250: d008 f93c 77e7 01be b031 02bd 6a80 eebd
00000260: 449e 8abe 1330 8cbe 100a 183e 3979 78be
00000270: 450c 88be 6d8d 48bf 4011 80be eefa 81bf
00000280: f05f 21bf cd5e 3bbe fbb5 3dbf fab3 82bc
00000290: d80c cabe 37eb 53bf ea80 93bf 9c26 9bbe
000002a0: dacc 163f 8ce2 7abf dc40 4abf 2157 84bf
000002b0: 6df1 08be 9fd9 103f bc9e 13bf 1c77 753e
000002c0: aaf4 a03e 3d71 8bbf bd65 543f fc52 1dbf
000002d0: 51be a03e be7f 91bf 6cc6 0c3e 8049 95be
000002e0: 1c48 37bf c63c cf3e c0a1 3abf 495a 8e3f
000002f0: 325c a73d 9bfd 37bf 96a3 77bf 5b55 4dbf
00000300: eb43 a1be 11f2 1cbf c897 66bf 793e 0fbf
00000310: 0161 65bf da34 fbbc 9d5b 67bf cadb 7dbf
00000320: 2cb8 90bf 3f76 06bf df58 563f 94cc acbe
00000330: 180e 453f 4c54 7cbf 5c92 68be 0646 28bf
00000340: 6ecb 81be e933 9c3e 360f 25bf 244b 07bf
00000350: 4ae9 dfbe 74bb 37bf dd79 79be 6191 1abf
00000360: a4fe 2a3f c9a6 61bf 2f41 20be beff a7be
00000370: b925 213f 5e2d 6b3f 3147 72bf 1ffe f33e
00000380: 32af 4a3e f382 1ebf 0342 b03b 8f03 333f
00000390: a975 4a3f 02da 07bf a2a9 3ebf 2972 8dbe
000003a0: 475e 51be 76cd 843f 00e2 4abf 096a 80be
000003b0: f576 5ebe 5949 f8be 76ec 50be 3cde cf3d
000003c0: c7cc 7a3f 783c 80bf 41e2 09bf 721e 66bf
000003d0: dae3 30bf 2486 373f 4515 33bf 124d 07bf
000003e0: 59fd 71bf b522 24bf a103 3f3f 03b9 6b3e
000003f0: b615 113e 36bb 79be f875 54be d80e bb3d
0.3780455 -0.759694 -0.5734444 0.4714791 -0.03570611 0.44215426 -0.5766442 1.1357005
1.1382285 -0.6299205 0.4464415 -0.91249996 -0.70653784 -0.81663543 -1.0750673 0.11467325
-1.0481566 0.68950254 -0.93539166 -0.4936389 -0.6105697 -0.96584654 -0.5454966 -0.09372016
0.6673222 -0.37422332 0.65318286 -0.46221092 -0.36664253 -0.8442732 -0.46281892 0.3875635
-0.4822878 -0.4356786 0.47170928 0.10055918 -0.21697192 -0.5886218 0.35794613 0.45153153
0.7579658 0.14624229 -0.29091775 0.1372054 0.19211257 -0.613091 0.63223773 -0.4776142
-0.8315692 -0.39205813 -0.8560614 0.6182495 -0.76671904 0.756148 -0.87917185 0.54274946
0.4908097 -0.46319783 -0.7845817 -0.6407189 -0.123339415 -0.041717514 -0.022885025 0.2823875
-0.052557155 0.082579404 -0.19109638 0.08088568 0.21519554 -0.03880647 -0.17560782 -0.24355099
-0.37045828 -0.40982008 -0.7956453 0.7275541 0.57539487 -0.8803333 -0.748898 0.8427171
0.70803535 -0.72825426 -0.70205754 -0.324401 -0.2744271 -0.2817155 -0.26015776 0.48033383
-0.44473708 -0.7824076 -0.8071161 0.41785288 0.30939108 -0.76846755 -0.7712915 0.32623422
0.006813735 -0.22240815 -0.019110978 0.2496401 0.009500921 0.1975626 -0.06412794 0.158326
-0.25691652 -0.13981366 0.281209 0.090548575 -0.6460273 -0.94841856 -0.20762154 0.8482502
0.8493595 -0.40073308 -0.96615493 0.90861434 0.87398463 -0.5124428 -0.20784546 -0.7963182
0.063408196 -0.263369 -0.25225934 -0.2676258 -0.12182605 0.24007863 -0.004688233 0.28306085
0.0661791 -0.074701935 0.12287676 0.13772392 0.5043804 -0.4715425 -0.43127966 -0.88977414
-1.103027 -0.6486812 -0.59134954 -0.5694567 -0.5233112 -0.517927 0.5765983 -0.41077268
0.14951038 -0.2575049 -0.12433915 0.05040461 0.03039971 -0.12685953 -0.031785667 -0.11645587
-0.27073872 -0.27380428 0.14847589 -0.24264993 -0.2657186 -0.783408 -0.2501316 -1.0154703
-0.63037014 -0.18297882 -0.74105805 -0.01595496 -0.39462924 -0.82780784 -1.1523716 -0.30302894
0.5890633 -0.98001933 -0.7900522 -1.033909 -0.13373347 0.56582063 -0.57664084 0.23971218
0.31436664 -1.0893933 0.8296774 -0.6145475 0.313952 -1.1367109 0.13747567 -0.2915764
-0.71594405 0.40476054 -0.7290306 1.1121303 0.08171882 -0.71871346 -0.9673399 -0.8020837
-0.3149713 -0.61306864 -0.9007535 -0.559547 -0.8960114 -0.03066485 -0.90374166 -0.99163496
-1.1306205 -0.5252418 0.83729357 -0.3374983 0.7697463 -0.98566127 -0.22712082 -0.6573185
-0.25350517 0.30508354 -0.64476335 -0.5284903 -0.43732673 -0.71770406 -0.24362893 -0.6037808
0.667948 -0.8814512 -0.15649866 -0.32812303 0.62948185 0.918661 -0.9463988 0.47654817
0.19793394 -0.6191856 0.005378963 0.69927305 0.79085785 -0.5306703 -0.7447759 -0.2762616
-0.2044612 1.0375202 -0.792511 -0.25080898 -0.21725066 -0.4849346 -0.20402703 0.1014981
0.97968715 -1.0018454 -0.5386086 -0.89890206 -0.69097674 0.7168906 -0.6995433 -0.52851975
-0.945272 -0.6411546 0.7461491 0.23019795 0.14168438 -0.24387822 -0.20748127 0.091336906

layer_1.bias f4 [32]
00000000: b99b 26bf bc46 57bf b27b 36bf 7428 08be
00000010: 5590 03bf 504f 613e 603c a7be 76dd 40bf
00000020: f08f 913e d355 51bf fbc1 56be f1a9 00bf
00000030: f81a 033e dd38 64bf 0937 75bf ac87 88bf
00000040: fa5d 37bf d955 7dbf 9868 77bf 4067 0dbf
00000050: 7190 71bf c0a5 933d 3357 3bbf e3fc b5be
00000060: 394f 05bf 0d54 73bf 3c39 b7bd bb37 14bf
00000070: bdcc fcbe f222 80bf 383e a3bf 2f81 16bf
-0.65081364 -0.8409231 -0.71282494 -0.13296682 -0.5139211 0.22002912 -0.3266325 -0.7533792
0.28430128 -0.8177158 -0.20972435 -0.5025931 0.12803257 -0.89149266 -0.957871 -1.0666404
-0.7162777 -0.9895912 -0.9664397 -0.5523567 -0.94361025 0.07209349 -0.7317993 -0.355445
-0.5207401 -0.95050126 -0.089464635 -0.5789754 -0.49374953 -1.0010664 -1.2753363 -0.5879087

layer_out.weight f4 [104, 32]
00000000: f063 6a3c 4ae0 febe 7c67 2abe 3a04 d83d
00000010: 98b1 f5bc 77f9 243e 4436 083d bf33 f3bd
00000020: 173a 98bd c03f 8c3b bc8f 323d 2a32 e63d
00000030: a2a9 1cbe 08bd 36bd d064 2cbd 029b ff3e
00000040: 703b 86bc d00f 10be 5775 163f 2487 203d
00000050: 0046 453d d240 fa3d 1474 353d e8aa 4ebd
00000060: cde3 163e 1cef ca3e 7d57 1e3e d686 9c3d
00000070: 40c7 43bb a06e d5bc ecf9 52bd 405a 49bd
00000080: 24d7 1c3f ce22 f1be d905 003f 6e12 ebbe
00000090: 8f68 043f 7884 57bd d7ad 053e 06a4 15be
000000a0: ff52 09be 41d0 b7bd 8002 94ba 2e65 81bd
000000b0: 8dce b7bd aab6 dcbe fc68 2abe aafb 013f
000000c0: bb4e 0d3f bdb7 213f 4c1f 253f 4851 f73c
000000d0: cc52 cbbe 2c6d 2abe 8620 013f 59a8 e1bd
000000e0: 8674 3d3f 2290 0bbf 84d5 7e3d 6549 033f
000000f0: 14dc 08be 3f66 c5be 1428 90bd d9a8 04be
00000100: e238 fb3e fbfe 03bf 29aa e5bd 53ca 3abf
00000110: 4a1e 153f 1b13 32be 768b 6fbd 8983 b9bd
00000120: 389f d9bd 8d87 24be ea83 d43d d4cf 213f
00000130: 3e6f d03d 7a8b e63e 2cdb 1dbe 7453 2b3d
00000140: b51f 0b3f cf3d 02be 4b3a 073f 1b5b 093f
00000150: f5d1 ea3e 00b5 0e3c 8f28 303e 8ae6 bdbd
00000160: 9141 323f d21d e7be 7560 a8bd 54d9 413f
00000170: 7454 453f 4448 8c3d fba5 273e fe6e cd3d
00000180: 42f3 ad3d 7eb2 2cbf 27f7 2b3f d035 2bbe
00000190: f057 3cbd e0cd 4ebc bfdb 23be 00d4 bc39
000001a0: 8874 8f3c 4e48 0cbe 8b55 203e b463 403f
000001b0: b04d 083c 8464 71bd ae72 10be 2516 ed3e
000001c0: 229b 32be 1981 21be 1ce5 d8be d08e 3abd
000001d0: 10cb 0dbd 98f9 96bd d1e1 083e 2e94 903d
000001e0: eb1b 1c3e 408d 2c3c 3b12 d2bd 4c67 333f
000001f0: d07f 273c 8b21 323e b163 8dbd da7e 933d
00000200: 624b 0b3f dc0c ec3e cdc1 313f 41da 033f
00000210: 4c0a bbbd 502d 97bd 2120 e4be 3b3f 143f
00000220: 70b7 c2bc 1979 cdbe 56dd cb3d a6fe 343f
00000230: 27d4 2c3e 3109 533f 6252 f23d 3710 203f
00000240: 9d58 1ebf 9186 203f 2261 1fbd ff71 cebe
00000250: 327d d13e c0a3 4dbb 131e fd3e a3eb 2b3e
00000260: e36e f83e 263c ce3e 80bc c63c 7e5f 103f
00000270: aea5 9d3d fdb1 053f 9a4b 9c3e 6d39 c63e
00000280: 609d a73b bb61 1dbf 0f70 1c3f d595 1f3e
00000290: e759 2e3e 39d9 e4bd 52e3 aa3d 80e3 9e3a
000002a0: 8c64 30bd b274 04be 6d8c 98bd a054 01bc
000002b0: b4bf 24be 6fc2 1c3e cda7 0b3e 1481 d93e
000002c0: b7c5 103e a557 0f3e eba3 e0bd 4cc5 99bd
000002d0: 1d2f 0a3f c016 93bc 6ea0 07be b1f7 173e
000002e0: 744d 5abd 5334 ddbd 063f 1abe ea70 e63e
000002f0: 289c a4bc 6a90 ffbd 9699 da3d 38b1 163d
00000300: 5eaf 363f f514 0fbf f7b2 d83e 68e8 b53c
00000310: da8d 113f 35e3 10be f74c bfbd 7916 e5bd
00000320: e797 0c3e c861 b33e 7802 8e3d c079 f93e
00000330: aedf 01be f40c ab3e c4a2 3f3d b871 d83e
00000340: ffa3 213f 3ce7 0d3f 64a3 83be c00c 233b
00000350: 8fe7 da3e 74d3 20be 7cc0 613d 009b 44bd
00000360: 7679 dcbd 30eb 2dbe e2ec be3d 34a8 0abd
00000370: 40d3 03be 0492 ecbd 5af1 833e 6a2f e4be
00000380: eac6 cdbe 794c 33bf e60b 9a3e be56 023f
00000390: cef1 f33d c3c1 8cbd 41d4 d2bd 7b32 d9bd
000003a0: b0b2 ccbd 3745 2f3f d33c 06be b02a 503d
000003b0: ccbc 2dbd 161a bd3e 542c 0bbd fbb5 1e3f
000003c0: 76f6 07bf 08a9 e23e dc62 e2be ec60 3e3f
000003d0: 6dab 0a3f 0f60 e3bd 0b75 b8bd 580d 6b3d
000003e0: 6ec0 f13e 3ac4 cf3e caa9 c43d a357 0c3f
000003f0: 29f4 98bd 18ef dd3c 0039 f6ba 68f4 bfbd
0.0143060535 -0.49780494 -0.16641039 0.10547681 -0.02999191 0.16110788 0.033254877 -0.11875104
-0.07432955 0.0042800605 0.043594107 0.11240037 -0.15299085 -0.044613868 -0.04208833 0.4992295
-0.016385764 -0.14068532 0.58772796 0.03919138 0.04816246 0.12219395 0.044300154 -0.050455958
0.14735337 0.3963555 0.15463062 0.076429054 -0.00298734 -0.026053727 -0.051507875 -0.049158335
0.6126578 -0.47096866 0.5000892 -0.45912498 0.51722044 -0.052616566 0.13054596 -0.14613351
-0.13410567 -0.08975268 -0.0011292249 -0.063181266 -0.08974943 -0.43108112 -0.16641611 0.50774634
0.5519826 0.6317099 0.6450088 0.030190125 -0.39711607 -0.16643208 0.5044025 -0.11018438
0.74005926 -0.54516804 0.062215343 0.51283866 -0.13365203 -0.3855457 -0.07038894 -0.12955035
0.49066836 -0.51560944 -0.11214096 -0.7296497 0.5824934 -0.173901 -0.05848261 -0.090582915
-0.10626072 -0.16067334 0.10376723 0.63207746 0.10177468 0.45028287 -0.15415639 0.041827634
0.54345256 -0.1271889 0.52823323 0.5365464 0.4586331 0.008710146 0.17202972 -0.092724875
0.69631296 -0.4513994 -0.08221523 0.7572224 0.7708199 0.06849721 0.1637191 0.10030936
0.08493663 -0.6745986 0.67174 -0.16719747 -0.0459823 -0.012622327 -0.16001795 0.00036016107
0.017511621 -0.13699457 0.15657632 0.75152135 0.008319303 -0.05893375 -0.14106247 0.46305957
-0.17441991 -0.15771903 -0.42362297 -0.045546353 -0.034617484 -0.07371825 0.13367392 0.07059513
0.15245025 0.0105317235 -0.102573834 0.70079494 0.010223344 0.17395608 -0.0690378 0.072019294
0.544119 0.4610356 0.6943634 0.51504904 -0.09132823 -0.073816895 -0.44555762 0.5790898
-0.02376911 -0.40131453 0.09954326 0.7070106 0.16877805 0.824359 0.118321195 0.6252474
-0.61853963 0.6270533 -0.038910992 -0.40321347 0.4091583 -0.003137812 0.49437007 0.16789107
0.485221 0.40280265 0.024259806 0.5639571 0.076976165 0.52224714 0.3052643 0.38715687
0.005115196 -0.6147725 0.6110849 0.155845 0.17026483 -0.111742444 0.08344139 0.0012122244
-0.04306464 -0.1293514 -0.07448659 -0.007893711 -0.16088754 0.15308546 0.1363823 0.4248129
0.14137922 0.13998277 -0.10968765 -0.075083345 0.5397814 -0.017955184 -0.13244793 0.1484058
-0.05329652 -0.10800996 -0.15063104 0.45008022 -0.020093992 -0.12478717 0.106738254 0.036790103
0.7136134 -0.5589135 0.4232404 0.022205546 0.56857073 -0.14149173 -0.09340852 -0.11185927
0.13729821 0.3503554 0.069340646 0.487257 -0.12682983 0.3340832 0.046786085 0.4227426
0.63140863 0.5543096 -0.25710595 0.0024879426 0.4275479 -0.15705663 0.055115208 -0.047999382
-0.10765354 -0.16984248 0.093225256 -0.033851817 -0.12873554 -0.11551288 0.25770074 -0.44567424
-0.40190822 -0.70038563 0.30087203 0.5091361 0.11911355 -0.068728946 -0.102943905 -0.106053315
-0.099950194 0.6846499 -0.1310914 0.05082196 -0.04241638 0.36933964 -0.03397782 0.6199643
-0.53110445 0.44269586 -0.4421605 0.7436664 0.54167825 -0.11102306 -0.09006699 0.057385772
0.47217125 0.40579396 0.09602697 0.54821223 -0.07468445 0.027091548 -0.0018785298 -0.09372789

layer_out.bias f4 [104]
00000000: 42c3 843f 8101 dd3f 6f95 4f3f e27c 0f3f
00000010: cb4f 0440 3109 923f ec9e 0940 e4d1 e33f
00000020: 8a04 313f e811 e73f 52b8 8f3f dacf 283f
00000030: 9e08 be3e f140 933f 5ed3 bd3f b3b9 883f
00000040: b032 d03e 0809 1f3f e5ba 093e 740d bb3e
00000050: 5b2e cd3e 2d9f 7a3f 970d 593f e6c1 c03e
00000060: 4ed8 be3f ede8 6a3f 9eb8 8d3f b77f c13e
00000070: 3363 1c3e 4615 773f f9ee f93e eb81 983e
00000080: d78c dc3e 438d 173f f54f b13f 51fd 853f
00000090: c540 1d3f c2ab 6d3f 45c7 ff3e 8c3d 733f
000000a0: 024f 6740 501a 28c1 949b 30c1 7f85 20c1
000000b0: 565d 2fc1 b5ef 32c1 61eb 31c1 4ef0 31c1
000000c0: 2543 2fc1 d30b 2ec1 ad34 32c1 d51a 32c1
000000d0: fa00 30c1 b4a3 28c1 4eaf 32c1 a516 30c1
000000e0: 6f40 2fc1 94a1 31c1 7ea9 2ec1 c11a 2ec1
000000f0: 094e 32c1 31fa 2fc1 75c8 27c1 fac5 1ac1
00000100: 0e5d 32c1 ca1f 2fc1 dbb7 2ec1 7336 31c1
00000110: cca0 31c1 2261 31c1 2a66 32c1 bef2 2ec1
00000120: 0cc4 2fc1 f3d2 2fc1 cfab 2ec1 0930 2ec1
00000130: 21a5 32c1 2d7d 32c1 12e8 2ec1 7bb5 2fc1
00000140: e62c 32c1 be53 16c1 6d7b 2ec1 05d9 30c1
00000150: d157 30c1 a616 31c1 e185 30c1 d180 2fc1
00000160: a7f9 32c1 f3e4 30c1 de68 2ec1 5b6b 2fc1
00000170: 8a3c 29c1 ee25 32c1 ea0c 20c1 5a7c 2ec1
00000180: 8f23 31c1 9410 29c1 1ad7 30c1 6eac 32c1
00000190: 9a6e 29c1 2f6a 32c1 035c 33c1 a709 31c1
1.0372088 1.7266084 0.8108739 0.5604993 2.0673702 1.1409055 2.1503248 1.7798429
0.6914755 1.805234 1.1228125 0.65942156 0.3711595 1.1504194 1.4830129 1.0681671
0.40663671 0.62123156 0.13450201 0.365337 0.4007443 0.9789913 0.8478636 0.37647933
1.4909761 0.91761667 1.1071966 0.3779275 0.15272216 0.96516836 0.48815134 0.2978662
0.43076202 0.59199923 1.3852526 1.0467931 0.61426955 0.92840207 0.49956718 0.9501579
3.6141973 -10.506424 -11.037983 -10.032592 -10.960287 -11.183522 -11.119966 -11.121168
-10.953893 -10.877887 -11.13786 -11.131551 -11.000238 -10.539967 -11.167799 -11.005528
-10.953231 -11.101948 -10.91638 -10.881532 -11.144052 -10.998582 -10.48644 -9.673334
-11.147718 -10.945261 -10.919887 -11.075793 -11.101757 -11.086214 -11.149942 -10.934263
-10.985363 -10.989001 -10.916945 -10.886727 -11.165315 -11.1555605 -10.931658 -10.981807
-11.135962 -9.395445 -10.905133 -11.052983 -11.02144 -11.068029 -11.032685 -10.968949
-11.18595 -11.055896 -10.900602 -10.96371 -10.57728 -11.13426 -10.003153 -10.905359
-11.071181 -10.566547 -11.052515 -11.167097 -10.589502 -11.150924 -11.209964 -11.064857
