models/neural_network.pt (torch, 17033 bytes, 4 tensors)

layer_1.weight f4 [32, 12]
0.6562283 -0.7256404 -0.6175036 0.43734622 0.5225144 0.23437254 -0.606915 0.43120703
-0.65510356 -0.51683426 -0.46157992 -0.52942556 0.9094752 -1.0743556 -0.898586 1.3885484
0.9176301 -1.0812463 -1.3008145 -1.0006112 1.3470066 -1.2087542 0.9452426 -1.2698447
-0.3445886 -0.7983102 0.105842486 0.441815 0.8260708 -0.19508795 -0.44928864 0.8506544
0.4623945 -0.6082263 0.6478321 -0.15188217 -0.57204825 -0.8555182 -1.1788892 0.101158656
0.8575754 0.41293037 -0.72738874 0.35094044 -0.37417865 -0.6715422 0.4755911 0.42323917
0.61593527 -0.81193703 0.47758245 -0.7008643 -0.3233024 -0.81013745 -0.6570343 -0.53044105
-0.36292893 -0.554878 -0.6533916 0.31428584 0.3461262 -0.87058926 -0.53004456 -0.765521
0.5628458 -0.7047898 -0.6247895 -0.7707914 -0.8008508 -0.42493245 -0.30590826 0.41902187
0.8846959 -0.32583565 0.48802483 0.6358725 -0.7397895 0.6571667 -0.60809666 0.5568674
-0.5696643 -0.50594956 0.812008 0.06404452 -0.623186 -0.6731126 -0.8960415 0.10014115
0.33001667 0.47616184 -0.72969043 0.32229048 0.114052415 -0.68958473 -0.22663492 0.41409165
-0.26226822 -0.71264476 -0.2748235 0.76085675 -0.16708219 0.6662702 -0.52759254 0.66679096
0.9238247 -0.59073716 0.9872837 0.5823403 -0.7249467 -0.8233501 -0.5055606 -0.8568821
-0.86372125 0.49249086 -0.45765632 -0.866078 -0.34488052 -0.63862306 0.44836676 -0.58108544
-0.41896608 -0.65082353 -0.73177344 -0.82494825 -0.7236391 -0.63135815 -0.52081186 -0.4659664
-0.41076148 -0.710038 -0.56558114 -0.39292398 -0.42841098 -0.87703 -0.5397581 -0.6424119
-0.5644836 -0.5744313 -0.51342875 -0.65996534 -0.43992448 -0.7091658 0.5886676 0.6925732
-0.4467299 -0.68315125 -0.57173693 0.40558672 0.50826687 0.4894932 -0.6502015 0.6010951
0.490024 -0.48129678 0.6813719 -0.52631634 0.090473376 -0.51215535 0.881914 -0.2975415
-0.00878923 -0.6813098 -0.73248017 -0.06140081 -0.026746513 -0.402407 -1.0067666 0.6277115
0.69185585 -0.8086012 0.44352785 -0.6442871 -0.6633193 0.5095489 -0.4543777 0.47797963
-0.31580538 -0.67242545 0.33744878 0.6648742 0.37802362 -0.4088816 0.6047832 0.5019857
0.3987728 0.6169972 -0.41010866 0.85134786 0.6781678 -0.73014164 0.4365332 -0.48872295
-0.44269153 -0.36125085 -0.75039315 0.7296491 0.66602165 -0.85857147 -0.7023004 0.67356765
0.6671223 -0.5523223 -0.71252066 -0.7853603 -0.22169153 -0.8552606 -0.6236881 -0.94104856
-0.9086252 -1.127769 -0.71817404 -0.7605648 -0.6440351 -0.59793377 -0.6241699 0.07805706
-0.22554599 -1.1936101 -0.0060945908 -0.22632502 -0.016674051 -0.7559867 -0.3810952 0.037081253
0.17372014 -0.71169597 -1.0142454 -0.029943349 -0.78774506 -0.7621885 -0.7439207 -0.79038644
-0.81842667 -0.29263565 -0.536701 -0.80263096 -0.32429305 -0.6781699 0.38477606 -0.520386
-0.7269569 -0.51400244 0.16484922 0.86260515 0.628119 -0.5201548 -0.6603124 1.0372518
0.6147389 -0.68671787 -0.6831594 -0.09585906 0.5273629 -0.63770443 0.5571536 0.6019892
00000000: 94fe 273f 92c3 39bf b714 1ebf d8eb df3e
00000010: 81c3 053f 5bff 6f3e c85e 1bbf 2bc7 dc3e
00000020: deb4 27bf 404f 04bf 3454 ecbe 6f88 07bf
00000030: 5ed3 683f 7c84 89bf bb09 66bf f4bb b13f
00000040: cee9 6a3f 4766 8abf 1781 a6bf 0714 80bf
00000050: b66a ac3f 75b8 9abf 6bfb 713f 458a a2bf
00000060: eb6d b0be 0f5e 4cbf f2c3 d83d 9335 e23e
00000070: 6079 533f 23c5 47be 2909 e6be 7dc4 593f
00000080: f9be ec3e b8b4 1bbf 53d8 253f 0087 1bbe
00000090: c171 12bf 3e03 5bbf d7e5 96bf 452c cf3d
000000a0: 108a 5b3f 9c6b d33e 2636 3abf 77ae b33e
000000b0: 5894 bfbe 31ea 2bbf ad80 f33e ceb2 d83e
000000c0: efad 1d3f 1bdb 4fbf b085 f43e d86b 33bf
000000d0: e487 a5be 2b65 4fbf 6633 28bf fcca 07bf
000000e0: d2d1 b9be 7c0c 0ebf ac44 27bf 13ea a03e
000000f0: 7437 b13e f0de 5ebf 00b1 07bf 2ff9 43bf
00000100: aa16 103f 1b6d 34bf 34f2 1fbf 9652 45bf
00000110: 8f04 4dbf bf90 d9be 02a0 9cbe 098a d63e
00000120: 6e7b 623f eed3 a6be 64de f93e 8ac8 223f
00000130: d862 3dbf 143c 283f 39ac 1bbf dd8e 0e3f
00000140: 85d5 11bf e985 01bf c2df 4f3f c629 833d
00000150: 1e89 1fbf 1b51 2cbf fa62 65bf ce16 cd3d
00000160: f2f7 a83e 7ccb f33e fecc 3abf 4203 a53e
00000170: 5094 e93d a088 30bf fc12 68be d203 d43e
00000180: 0548 86be e36f 36bf aab5 8cbe 82c7 423f
00000190: 9817 2bbe af90 2a3f 4e10 07bf d0b2 2a3f
000001a0: c77f 6c3f 8d3a 17bf a0be 7c3f 4114 153f
000001b0: 1b96 39bf 12c7 52bf 6b6c 01bf a05c 5bbf
000001c0: d61c 5dbf c327 fc3e ee51 eabe 4ab7 5dbf
000001d0: 2e94 b0be cd7c 23bf 5490 e53e 04c2 14bf
000001e0: b982 d6be 5f9c 26bf 8155 3bbf cf2f 53bf
000001f0: 6940 39bf b0a0 21bf ed53 05bf 2693 eebe
00000200: 544f d2be 0dc5 35bf edc9 10bf 552d c9be
00000210: af58 dbbe 0a85 60bf 962d 0abf 1b75 24bf
00000220: ff81 10bf ee0d 13bf 1170 03bf 7df3 28bf
00000230: c83d e1be e48b 35bf ebb2 163f 7a4c 313f
00000240: c8b9 e4be 00e3 2ebf 5a5d 12bf 10a9 cf3e
00000250: c71d 023f da9e fa3e 9b73 26bf 5ee1 193f
00000260: 6de4 fa3e 886c f6be 646e 2e3f abbc 06bf
00000270: 1b4a b93d 9d1c 03bf 1ec5 613f 5c57 98be
00000280: b400 10bc 526a 2ebf d283 3bbf 6a7f 7bbd
00000290: 811b dbbc 4a08 cebe badd 80bf b3b1 203f
000002a0: 771d 313f 7d00 4fbf 1516 e33e 00f0 24bf
000002b0: 4bcf 29bf cc71 023f 32a4 e8be bfb9 f43e
000002c0: 3eb1 a1be 1324 2cbf 16c6 ac3e 3235 2a3f
000002d0: 508c c13e ee58 d1be 12d3 1a3f 2382 003f
000002e0: f32b cc3e 87f3 1d3f c3f9 d1be eff1 593f
000002f0: 689c 2d3f 90ea 3abf 4881 df3e e539 fabe
00000300: 77a8 e2be dff5 b8be c419 40bf 49ca 3a3f
00000310: 6580 2a3f 57cb 5bbf f6c9 33bf ee6e 2c3f
00000320: 87c8 2a3f ff64 0dbf c167 36bf 5f0d 49bf
00000330: 1b03 63be 5cf2 5abf 06aa 1fbf 8fe8 70bf
00000340: a99b 68bf bc5a 90bf 41da 37bf 60b4 42bf
00000350: 7cdf 24bf 3012 19bf 99c9 1fbf 61dc 9f3d
00000360: 87f5 66be 37c8 98bf 22b5 c7bb bfc1 67be
00000370: 0598 88bc 5888 41bf e91e c3be 83e2 173d
00000380: b1e3 313e b531 36bf cbd2 81bf c14b f5bc
00000390: a9a9 49bf c91e 43bf 9671 3ebf c456 4abf
000003a0: 6984 51bf 57d4 95be 3d65 09bf 3979 4dbf
000003b0: bd09 a6be 8b9c 2dbf 5e01 c53e 0438 05bf
000003c0: d919 3abf aa95 03bf 3cce 283e b1d3 5c3f
000003d0: 68cc 203f dd28 05bf 3c0a 29bf abc4 843f
000003e0: 875f 1d3f becc 2fbf 89e3 2ebf c151 c4bd
000003f0: 4101 073f 9940 23bf 9ea1 0e3f f71b 1a3f

layer_1.bias f4 [32]
-0.57854635 -1.1352105 -0.6360401 -1.1078037 -0.713266 -0.65210885 -0.5092053 -0.5978479
-0.7148158 0.6036947 -0.54131895 -0.32461256 -0.7801133 -0.6004268 0.5423379 -0.8199817
-0.72604376 -0.64538395 -0.40109468 -0.76999164 -1.0265929 -0.873303 -0.41020045 -0.78899693
-1.7630856 -0.6338055 -0.8412675 -0.64839154 -0.8774648 -0.26113302 -0.4205259 0.21119592
00000000: 9d1b 14bf 944e 91bf 86d3 22bf 83cc 8dbf
00000010: 9a98 36bf 9bf0 26bf 475b 02bf 8f0c 19bf
00000020: 2bfe 36bf bc8b 1a3f e193 0abf 9e33 a6be
00000030: 81b5 47bf 92b5 19bf a8d6 0a3f 52ea 51bf
00000040: 01de 39bf e237 25bf 485c cdbe 2c1e 45bf
00000050: 6567 83bf c990 5fbf cb05 d2be b4fb 49bf
00000060: caac e1bf 1441 22bf 4f5d 57bf fdfc 25bf
00000070: 88a1 60bf 3ab3 85be 2c4f d7be be43 583e

layer_out.weight f4 [104, 32]
-0.46822077 -1.1827078 -0.14962181 0.57891005 -0.052255556 0.010198563 0.07376467 0.41799805
0.5293255 0.06439008 -0.016524896 -0.06025265 -0.13666461 -0.08322255 0.06968741 0.0689076
-0.121970445 0.1547897 0.0899411 0.10328798 0.57919484 0.16198696 0.044176593 -0.15316465
-0.023341686 0.028461978 0.540725 -0.47043937 -0.0812128 0.5632894 -0.037474364 0.10306443
-0.6257637 -0.98520464 0.6154619 0.73031497 -0.04175651 0.11946364 0.6041313 0.6341887
0.5291201 0.02204737 -0.065514974 -0.0030991137 0.15879302 0.4571214 0.09654944 -0.17408566
0.09850456 0.5819901 -0.021896243 0.47772694 0.06977117 0.131858 0.68905425 0.8198346
0.5166575 0.7202285 -0.07331202 -0.60052586 0.61913484 0.51695514 -0.037888125 0.12734269
-0.38706452 -1.01243 0.59822893 0.09340046 -0.5536206 -0.43299028 -0.548574 0.35212258
-0.70813215 0.16265772 0.002071768 0.04079044 0.6698964 -0.4258541 0.15676777 0.068412736
0.43175715 -0.16687575 0.5788785 -0.10886255 0.58347183 0.58968776 0.50471205 -0.08997399
-0.5375645 -0.4612549 -0.16244769 -0.8178726 -0.03529887 0.5170557 0.6764922 0.10170086
-0.61383355 -0.9824497 0.10521786 -0.13047987 -0.1727829 0.06813738 0.033969834 0.6649568
0.0012913644 0.09522085 0.14204289 -0.14181453 0.117074534 0.17290606 0.021279529 -0.1469715
0.060813054 -0.15145312 0.14227934 0.05123122 -0.15876545 0.096602425 -0.04012488 0.46552336
-0.16617648 -0.10203712 0.12743263 -0.49386567 0.045851752 0.5989382 0.17498024 0.007043794
-0.5327606 -1.0794083 -0.66958815 -0.26290637 -0.04426232 0.6770299 0.53076273 -0.45586753
0.22923763 0.06621207 -0.1528726 0.1260369 0.1260883 0.09045181 0.7354605 -0.12421802
0.15502508 0.048289392 0.04686907 -0.47107464 -0.03434898 0.59947485 -0.11612266 -0.4375706
0.017070904 0.26818907 -0.26976907 -0.6843484 0.399862 -0.091014914 0.44551593 0.10859449
-0.35293442 -1.224558 -0.014515255 0.40662447 0.559559 0.73800623 0.5356407 0.009618834
0.33510837 0.1700158 -0.04841906 0.11854206 0.0583615 0.47815293 0.108850226 0.12138088
0.52937245 0.32507774 0.68663114 -0.03259085 0.42663133 0.699666 0.6549777 0.31415847
0.5017781 0.3226938 0.21838075 -0.48872858 -0.18176666 0.039044153 0.52788126 0.047313362
-0.47522643 -1.1875895 0.80498725 0.61994475 0.021389142 0.73255765 0.65356123 0.7643362
0.43264446 0.5968765 0.12105234 0.71775657 -0.1305292 0.467879 -0.097208396 0.050510496
0.13824631 0.55903167 0.53517336 0.1460989 0.64848584 0.7074758 0.048096135 0.68444
0.6550178 -0.10727816 0.60710245 -0.57968134 0.5564837 0.50573033 0.018038675 -0.12815523
-0.637712 -1.041279 0.4326652 0.6821935 -0.109948315 0.4491204 0.09278493 0.47463745
0.5339881 -0.044670925 0.023976326 -0.14239816 -0.0025340766 0.08545317 0.61052567 -0.11356106
0.06559181 -0.06772607 -0.17643869 0.0008327216 0.6157706 0.67438436 -0.07694965 0.5749967
0.12128715 -0.4502033 0.46710294 -0.6596507 -0.46421808 0.66057783 -0.16009526 -0.08337938
00000000: a2ba efbe f862 97bf 7636 19be 7333 143f
00000010: ec09 56bd e017 273c ee11 973d d703 d63e
00000020: e081 073f f2de 833d 385f 87bc 7ccb 76bd
00000030: cff1 0bbe 9670 aabd 46b8 8e3d 6e1f 8d3d
00000040: a4cb f9bd 3181 1e3e 0a33 b83d a688 d33d
00000050: 1d46 143f e9df 253e 84f2 343d 32d7 1cbe
00000060: 1037 bfbc 1829 e93c f46c 0a3f 6edd f0be
00000070: e652 a6bd bc33 103f b87e 19bd 7213 d33d
00000080: 0d32 20bf 5f36 7cbf e98e 1d3f ecf5 3a3f
00000090: e008 2bbd 5aa9 f43d 59a8 1a3f 315a 223f
000000a0: 6a74 073f b09c b43c b72c 86bd 801a 4bbb
000000b0: a39a 223e d10b ea3e b6bb c53d 8343 32be
000000c0: c2bc c93d 4efd 143f c05f b3bc a098 f43e
000000d0: 30e4 8e3d c905 073e dc65 303f aee0 513f
000000e0: aa43 043f e560 383f 9d24 96bd 10bc 19bf
000000f0: 9f7f 1e3f 2c57 043f 9430 1bbd 1f66 023e
00000100: 522d c6be 4e97 81bf 8825 193f be48 bf3d
00000110: 14ba 0dbf e7b0 ddbe 586f 0cbf 6949 b43e
00000120: 2648 35bf bf8f 263e 80c6 073b e013 273d
00000130: 557e 2b3f 8c09 dabe bb87 203e fa1b 8c3d
00000140: 460f dd3e 7ae1 2abe 6231 143f 54f3 debd
00000150: 695e 153f c7f5 163f cf34 013f 4944 b8bd
00000160: d49d 09bf 9a29 ecbe b058 26be 1960 51bf
00000170: 8c95 10bd c35d 043f 982e 2d3f 8a48 d03d
00000180: 3224 1dbf d381 7bbf 767c d73d 849c 05be
00000190: 00ee 30be 9c8b 8b3d f423 0b3d 9c3a 2a3f
000001a0: 0043 a93a 2603 c33d b173 113e d437 11be
000001b0: c6c4 ef3d 490e 313e 6852 ae3c b27f 16be
000001c0: 1c17 793d 8716 1bbe adb1 113e d4d7 513d
000001d0: 6993 22be 7ed7 c53d fc59 24bd 1459 ee3e
000001e0: 2b2a 2abe d6f8 d0bd b37d 023e f6db fcbe
000001f0: 0ccf 3b3d 0454 193f 052e 333e a0cf e63b
00000200: 0063 08bf 0d2a 8abf 216a 2bbf aa9b 86be
00000210: 684c 35bd d551 2d3f 11e0 073f 7867 e9be
00000220: 45bd 6a3e 329a 873d a38a 1cbe d10f 013e
00000230: 4b1d 013e cc3e b93d 2447 3c3f 0466 febd
00000240: e5be 1e3e 19cb 453d c8f9 3f3d b230 f1be
00000250: 84b1 0cbd 2f77 193f b8d1 edbd 4109 e0be
00000260: 48d8 8b3c 1450 893e 2c1f 8abe 7531 2fbf
00000270: b6ba cc3e 0766 babd aa1a e43e ca66 de3d
00000280: d2b3 b4be 51be 9cbf 64d1 6dbc 1531 d03e
00000290: 423f 0f3f faed 3c3f c01f 093f 5098 1d3c
000002a0: 5393 ab3e 9f18 2e3e 1053 46bd 2ec6 f23d
000002b0: 780c 6f3d 76d0 f43e deec de3d 8a96 f83d
000002c0: f484 073f 9770 a63e 0fc7 2f3f fc7d 05bd
000002d0: 6c6f da3e 501d 333f 9eac 273f 61d9 a03e
000002e0: 8874 003f 1f38 a53e 349f 5f3e a23a fabe
000002f0: 0a21 3abe c3ec 1f3d 3a23 073f a8cb 413d
00000300: e150 f3be ef02 98bf a513 4e3f b3b4 1e3f
00000310: 4838 af3c e688 3b3f ca4f 273f 8aab 433f
00000320: 9383 dd3e e6cc 183f 4aea f73d e5be 373f
00000330: 72a9 05be d68d ef3e 3215 c7bd 18e4 4e3d
00000340: 7190 0d3e b31c 0f3f 1f01 093f f39a 153e
00000350: 2b03 263f 221d 353f 7400 453d 7637 2f3f
00000360: 3faf 273f a7b4 dbbd 116b 1b3f ff65 14bf
00000370: b775 0e3f 8b77 013f d8c5 933c 203b 03be
00000380: 1841 23bf a148 85bf 4b86 dd3e 3ca4 2e3f
00000390: 952c e1bd 1cf3 e53e 0606 be3d ae03 f33e
000003a0: 72b3 083f dcf8 36bd 006a c43c d3d0 11be
000003b0: c012 26bb 1202 af3d 694b 1c3f b392 e8bd
000003c0: 0055 863d f7b3 8abd 58ac 34be 004b 5a3a
000003d0: 24a3 1d3f 74a4 2c3f c797 9dbd fc32 133f
000003e0: 6665 f83d 0c81 e6be 1e28 ef3e dede 28bf
000003f0: fead edbe a11b 293f 03f0 23be cfc2 aabd

layer_out.bias f4 [104]
1.0873364 1.6754925 0.99482644 0.99553055 2.17983 1.568396 2.1839027 1.9623467
1.0695343 1.5285026 1.0069687 1.1013224 0.6137435 0.3287261 1.3110677 1.3929226
0.6686158 0.92738444 0.7097866 0.552945 0.34195712 0.7912934 0.5004211 0.07838194
1.7206883 1.1897439 1.0222613 0.88690495 0.36964086 1.031189 0.43948185 0.60730696
0.09997648 0.2442311 1.4226269 1.625733 0.850706 0.6894226 1.0745503 1.3348442
3.619735 -22.822937 -22.823748 -22.822672 -22.821327 -22.813686 -22.814795 -22.821465
-22.822233 -22.825703 -22.824768 -22.825245 -22.821781 -22.823494 -22.827559 -22.822737
-22.823164 -22.824562 -22.814411 -22.826529 -22.82756 -22.822922 -22.826832 -22.824808
-22.82651 -22.815062 -22.825623 -22.82126 -22.82214 -22.82747 -22.827387 -22.823545
-22.82518 -22.824408 -22.821909 -22.789505 -22.824017 -22.823574 -22.822838 -22.825165
-22.825148 -22.825933 -22.825489 -22.792936 -22.82621 -22.82484 -22.814468 -22.824245
-22.797812 -22.82443 -22.824549 -22.825836 -22.821884 -22.82615 -22.80459 -22.82174
-22.823454 -22.815716 -22.825342 -22.823048 -22.823177 -22.82185 -22.82639 -22.827219
00000000: d72d 8b3f 8a76 d63f f2ac 7e3f 17db 7e3f
00000010: 5682 0b40 33c1 c83f 10c5 0b40 2d2e fb3f
00000020: 80e6 883f f9a5 c33f 5ae4 803f 22f8 8c3f
00000030: 4b1e 1d3f ca4e a83e 11d1 a73f 4a4b b23f
00000040: 682a 2b3f 1169 6d3f 93b4 353f ce8d 0d3f
00000050: 0115 af3e 3492 4a3f 991b 003f b686 a03d
00000060: 843f dc3f 8749 983f 75d9 823f 340c 633f
00000070: 9141 bd3e 00fe 833f c403 e13e 7878 1b3f
00000080: 78c0 cc3d b817 7a3e a318 b63f 0518 d03f
00000090: dec7 593f 007e 303f dd8a 893f 2ddc aa3f
000000a0: bda9 6740 6095 b6c1 0997 b6c1 d594 b6c1
000000b0: 1492 b6c1 6e82 b6c1 b384 b6c1 5c92 b6c1
000000c0: ef93 b6c1 0a9b b6c1 2099 b6c1 1a9a b6c1
000000d0: 0293 b6c1 8496 b6c1 d79e b6c1 f794 b6c1
000000e0: d795 b6c1 b498 b6c1 ea83 b6c1 bb9c b6c1
000000f0: d89e b6c1 5895 b6c1 5a9d b6c1 3599 b6c1
00000100: b19c b6c1 3f85 b6c1 e09a b6c1 f191 b6c1
00000110: be93 b6c1 a99e b6c1 7d9e b6c1 9f96 b6c1
00000120: f899 b6c1 6398 b6c1 4593 b6c1 e850 b6c1
00000130: 9697 b6c1 ae96 b6c1 2c95 b6c1 f099 b6c1
00000140: e799 b6c1 839b b6c1 9a9a b6c1 ef57 b6c1
00000150: 149c b6c1 4699 b6c1 0884 b6c1 0e98 b6c1
00000160: eb61 b6c1 6f98 b6c1 ad98 b6c1 509b b6c1
00000170: 3893 b6c1 f59b b6c1 cd6f b6c1 ec92 b6c1
00000180: 6f96 b6c1 9686 b6c1 4d9a b6c1 9a95 b6c1
00000190: de95 b6c1 2693 b6c1 729c b6c1 259e b6c1
