models/neural_network.pt (torch, 17033 bytes, 4 tensors)

layer_1.weight f4 [32, 12]
-0.26041535 -0.11628407 -0.08801259 0.19451493 -0.10608396 0.012949109 -0.18711936 -0.03202969
-0.09499921 -0.16639572 -0.16860837 0.115240455 -0.740482 -0.2245371 -0.50620294 -0.73585635
-0.69612336 -0.6871229 -0.6997318 -0.25726008 -0.27545726 -0.70802844 -0.77515286 -0.3295834
-1.0511388 -0.92802966 0.42202684 0.082239494 -0.2629369 -0.17878279 -0.11127969 0.2918409
-0.03487174 -0.5924846 0.09969556 -0.2598887 -0.7784257 -0.2961827 0.45029417 0.74730283
-0.31353483 -0.7969241 -0.7153297 -0.831761 -0.63445824 -0.74656194 -0.4120159 0.3554017
0.289528 -0.30815417 0.50033724 0.37213996 0.79288965 0.4517288 -0.8031296 0.59116715
0.521729 -0.78899723 0.24626392 -0.28702873 0.039660964 -0.89073896 0.45669967 -1.081931
-0.3236612 -0.6415035 -0.83683985 -0.7193151 -1.195667 -0.6094472 0.038658217 0.33164656
-0.57555693 -0.51340944 -1.0353558 -0.37803933 -0.73165303 -0.8186613 -0.7320853 -1.1502578
-0.65579975 -0.57590866 -0.6891493 -0.701359 -0.55633193 -0.37828004 -0.6690869 -0.3040958
-0.62485296 -0.46033534 -0.62282586 -0.44359836 -0.79825634 -0.6961082 -0.4875752 -0.63301533
-0.49402973 -0.80772066 0.122619346 0.25592276 0.4498506 0.18387866 -0.78134245 -0.69096553
-1.0534337 -0.6198256 -0.28791633 0.7640698 0.6706468 -0.79617625 0.24539348 -0.6628264
-0.28853327 0.2060756 -0.6716888 1.080041 -0.23894618 -0.71616143 0.51364 0.8827727
-0.07629684 -0.76522255 -0.68558556 -0.081515916 -0.16557576 -1.077584 -0.72842693 -0.5655818
-0.49513248 -0.27275985 -0.63329345 -1.0847998 0.47119635 -0.68187916 -0.82746124 -0.7438566
-0.47417778 1.085548 -0.8797813 -0.06286869 -0.7944162 -0.6794118 0.42963395 -0.18333182
0.53695774 -0.55636287 -0.6654624 0.3943888 -0.3988012 0.65356773 -0.47800693 0.65048236
-0.81420743 -0.88715446 0.87837666 -0.8037412 -0.90399784 -0.78534937 -0.62690324 -0.6179044
-0.7174687 -0.55649996 -0.8391386 -0.3591073 -0.47261465 -0.6540238 -0.025489412 -1.1281356
-0.24715717 -0.66251945 -0.40564418 -0.037824936 -0.8229313 0.44106564 -0.7062466 -0.6310643
0.16985545 -0.67183983 0.69284713 1.0166491 1.8006123 -1.8291425 -2.0038786 -1.6983806
-1.8192985 -1.6257694 -2.0959136 -1.7084383 -1.6745517 -2.1234996 2.0261207 1.8955889
0.06981072 -0.88977796 0.6664853 -0.40322816 -0.038208373 -0.38052824 -0.7752806 -0.0789838
-0.57534456 -0.65254587 0.83566403 0.07643105 0.33938625 -0.33341083 0.64667654 0.5889916
0.2708911 0.7091334 -0.79295796 0.33901945 0.33872393 -0.64891684 0.4233733 -0.4329058
-0.619814 -0.64929974 -0.4010026 -0.2914035 -0.78990155 0.67539066 -0.74015546 -0.40345314
-0.030990696 -0.63774824 -0.27600902 -0.33733812 0.68058556 -0.32157218 0.3818193 0.23925735
0.65079284 0.27294782 -0.58894056 0.4965205 0.44561738 -0.7487031 0.4543745 -0.5222218
1.0809215 -0.7051835 -0.6282508 -0.6465287 -1.0899981 -0.75770485 -0.9976946 0.43484375
-0.6180395 -0.67956966 -0.51062244 0.90237474 -0.12399787 -0.2894047 -0.99772346 0.5349258
00000000: 2955 85be 5826 eebd f23f b4bd ec2e 473e
00000010: 8c42 d9bd 8028 543c 389c 3fbe 9031 03bd
00000020: f28e c2bd a463 2abe aca7 2cbe 3003 ec3d
00000030: 3a90 3dbf 0eed 65be 8496 01bf 1561 3cbf
00000040: 2435 32bf 49e7 2fbf a021 33bf 98b7 83be
00000050: bc08 8dbe 5a41 35bf 6b70 46bf 28bf a8be
00000060: b78b 86bf 5a93 6dbf e713 d83e 2e6d a83d
00000070: aa9f 86be d612 37be 9be6 e3bd 2c6c 953e
00000080: abd5 0ebd 12ad 17bf 302d cc3d 2210 85be
00000090: e846 47bf 42a5 97be f58c e63e 3d4f 3f3f
000000a0: a387 a0be 3803 4cbf d91f 37bf 4aee 54bf
000000b0: db6b 22bf af1e 3fbf bff3 d2be 36f7 b53e
000000c0: 043d 943e 62c6 9dbe 1a16 003f 2189 be3e
000000d0: d1fa 4a3f ff48 e73e e799 4dbf bb56 173f
000000e0: 0890 053f b9fb 49bf 9c2c 7c3e 6ef5 92be
000000f0: 8973 223d 7807 64bf 8ad4 e93e b77c 8abf
00000100: ecb6 a5be 9339 24bf 233b 56bf 0925 38bf
00000110: 9e0b 99bf bb04 1cbf 1458 1e3d 94cd a93e
00000120: b357 13bf cd6e 03bf 8a86 84bf 5f8e c1be
00000130: 9d4d 3bbf c993 51bf f169 3bbf a63b 93bf
00000140: 7ee2 27bf c06e 13bf 176c 30bf 438c 33bf
00000150: c56b 0ebf ecad c1be 4749 2bbf 72b2 9bbe
00000160: 5df6 1fbf 13b1 ebbe 8471 1fbf 531f e3be
00000170: 875a 4cbf 2634 32bf 75a3 f9be 4b0d 22bf
00000180: 77f1 fcbe c8c6 4ebf da1f fb3d 4f08 833e
00000190: d152 e63e b04a 3c3e 0f06 48bf 1ee3 30bf
000001a0: ead6 86bf e4ac 1ebf c569 93be 149a 433f
000001b0: 82af 2b3f 35d2 4bbf 6e48 7b3e feae 29bf
000001c0: a2ba 93be 7b05 533e ccf3 2bbf c93e 8a3f
000001d0: 4fae 74be 5b56 37bf e97d 033f 64fd 613f
000001e0: 8541 9cbd a0e5 43bf 8982 2fbf d1f1 a6bd
000001f0: b18c 29be 46ee 89bf 307a 3abf f8c9 10bf
00000200: 0182 fdbe 2ea7 8bbe 851f 22bf b8da 8abf
00000210: a640 f13e a28f 2ebf 80d4 53bf 636d 3ebf
00000220: 6ec7 f2be 3df3 8a3f 5939 61bf 4dc1 80bd
00000230: dc5e 4bbf efed 2dbf fbf8 db3e 56bb 3bbe
00000240: 1076 093f cc6d 0ebf be5b 2abf 54ed c93e
00000250: ac2f ccbe 3750 273f 53bd f4be 0386 263f
00000260: e66f 50bf 8e1c 63bf 4bdd 603f fcc1 4dbf
00000270: 676c 67bf a80c 49bf bb7c 20bf fc2e 1ebf
00000280: 07ac 37bf c876 0ebf cad1 56bf e9dc b7be
00000290: 8cfa f1be 1b6e 27bf 2ccf d0bc bf66 90bf
000002a0: c516 7dbe e09a 29bf 98b0 cfbe 52ee 1abd
000002b0: a0ab 52bf 5bd3 e13e 94cc 34bf 6e8d 21bf
000002c0: 96ee 2d3e b2fd 2bbf 6e5e 313f 8f21 823f
000002d0: 777a e63f 5721 eabf 8c3f 00c0 8964 d9bf
000002e0: c6de e8bf 3619 d0bf 7323 06c0 1bae dabf
000002f0: b657 d6bf 6be7 07c0 f6ab 0140 a8a2 f23f
00000300: ecf8 8e3d 7dc8 63bf c89e 2a3f ec73 cebe
00000310: 6280 1cbd 99d4 c2be ca78 46bf 42c2 a1bd
00000320: c849 13bf 3f0d 27bf 14ee 553f e287 9c3d
00000330: 09c4 ad3e d3b4 aabe 988c 253f 27c8 163f
00000340: 3db2 8a3e c489 353f 4bff 4abf f593 ad3e
00000350: 396d ad3e 6a1f 26bf 63c4 d83e d4a5 ddbe
00000360: 21ac 1ebf 8238 26bf 3650 cdbe d732 95be
00000370: fd36 4abf 67e6 2c3f d47a 3dbf 6991 cebe
00000380: 33e0 fdbc 7843 23bf 0e51 8dbe 95b7 acbe
00000390: db3a 2e3f 1ca5 a4be d27d c33e e1ff 743e
000003a0: 5c9a 263f d1bf 8b3e cfc4 16bf ef37 fe3e
000003b0: f627 e43e 02ab 3fbf c6a3 e83e 54b0 05bf
000003c0: a35b 8a3f e886 34bf 0bd5 20bf e882 25bf
000003d0: 0f85 8bbf f2f8 41bf ea68 7fbf d7a3 de3e
000003e0: d637 1ebf 47f8 2dbf 27b8 02bf 0802 673f
000003f0: 98f2 fdbd da2c 94be ce6a 7fbf e6f0 083f

layer_1.bias f4 [32]
-0.039723545 -0.23056456 -0.9226481 -0.58868223 -0.46405008 -0.9598455 -0.832823 -0.37658954
-1.0464252 -1.0970097 0.046115387 -0.24329568 -0.8682806 -1.0564857 -0.6673761 -1.8377583
-1.1418048 -0.70451516 -0.6901835 -0.6504426 -0.8232326 -0.6826041 -0.7385165 -0.9504646
-0.6165159 -1.0079305 -0.6429578 -0.5011402 -0.62974024 -0.76207817 -0.34494016 0.07284477
00000000: 28b5 22bd 1e19 6cbe aa32 6cbf e1b3 16bf
00000010: f997 edbe 6fb8 75bf e333 55bf 58d0 c0be
00000020: 43f1 85bf d06a 8cbf 7de3 3c3d 8122 79be
00000030: a347 5ebf ec3a 87bf 29d9 2abf aa3b ebbf
00000040: a926 92bf 1b5b 34bf deaf 30bf 6883 26bf
00000050: 5fbf 52bf 24bf 2ebf 6b0f 3dbf a651 73bf
00000060: fcd3 1dbf de03 81bf e298 24bf b94a 00bf
00000070: a836 21bf 8e17 43bf ff9b b0be a42f 953d

layer_out.weight f4 [104, 32]
-0.076545335 -0.02885668 -0.09554642 -0.106964484 -0.056693666 -0.12602173 0.037997678 0.14023311
-0.046279088 -0.122765735 0.07402803 0.087511614 -0.043460563 0.08785345 0.14425947 -0.1187041
0.17210607 -0.0029725283 -0.15539986 -0.007115394 -0.03321877 0.07920332 -0.10648479 0.066426694
-0.10372398 -0.16923772 0.15587239 -0.03513515 0.059458688 0.008018136 -0.096702404 -0.13754153
-0.020043984 0.10560109 0.096052125 -0.0031065643 0.14056037 0.064025745 0.022734895 0.0976948
-0.023748994 0.13178237 -0.17251244 -0.011525378 -0.07464455 -0.063517004 0.0011021197 -1.7324985
-0.13003561 0.12425159 0.60880095 -0.048759326 -0.104555055 -0.046883747 0.13820694 0.04559058
0.17395164 -0.09256227 -0.11124928 -0.17473525 -0.07639123 -0.112602636 0.0864851 0.10499139
-0.15513308 0.09768449 0.059696376 -0.1713428 0.1651863 -0.11569046 0.031055763 -0.16745242
0.12821154 0.17641838 0.020162717 0.013326034 0.108820125 0.0035735965 -0.08417166 -0.12854557
-0.051436365 -0.031026334 0.36473122 -0.059488147 -0.1268479 -0.04474762 -0.16707733 -0.099270664
-0.11471005 0.07840316 -0.05560229 -0.16155349 -0.10455044 0.06808008 -0.08690661 0.095164016
-0.0934034 -0.01214084 -0.7221258 0.13268936 0.13707657 -0.48543584 -0.7225073 0.0054636896
-0.5504875 -0.44612187 -0.6647261 -0.68911713 -0.42676607 -0.4715786 -0.48707354 -1.7087204
-0.6369636 0.08007337 0.13295504 0.10743643 -0.45869854 -0.7192401 -0.7238612 -0.5063958
-0.020254076 -0.41549835 -0.44517678 -0.42747694 -0.44963476 -0.7579543 -0.5165798 0.04825045
0.14729805 0.51295954 -0.16679704 0.58617127 -0.049353838 0.67313665 -0.71015304 0.5673291
-0.0048682094 0.40534204 -0.15782532 0.50198144 -0.14240564 0.42366326 0.50301635 -0.1525625
0.502649 -0.09647367 -0.10408364 0.11608912 0.5158047 0.7679837 0.17135356 0.17511289
0.36318898 -0.4804107 0.6938527 0.4783818 -0.46884313 -0.15638527 0.05282861 0.06233944
0.020522013 0.026853696 0.052113354 -0.14541331 0.05847521 0.15931936 0.5864199 0.16409822
0.6513277 -0.14196086 0.55398047 0.6260955 0.012296483 0.49558783 0.07162991 -1.7716064
-0.06465653 0.090813264 0.75519407 -0.0063768625 -0.03261836 0.49150962 0.5040519 0.020452753
-0.11946539 0.09400369 0.0134231 0.7616154 0.5500273 0.75934523 0.0114607215 -0.018682197
0.0047268122 0.10249339 -0.25205308 -0.24132675 -0.36899632 0.39683813 -0.5093088 -0.107765846
0.049070872 -0.11572696 0.78831077 -0.46534622 -0.053710617 0.64833146 0.4596906 -0.6980431
0.07659307 -0.36766315 -0.10465708 -0.38548082 0.5686648 -0.18442516 0.104868434 0.6344219
0.06631711 -0.14269128 0.0045506298 -0.40445933 -0.32995293 0.5882426 0.662529 -0.11435685
0.1588132 0.04629922 -0.027182266 -0.05552925 0.035021037 0.5086078 0.07403214 0.08423023
-0.06188 0.46995348 -0.0982038 -0.002668649 -0.1698792 0.48410556 -0.013602614 -1.7097013
-0.028733239 -0.15168609 0.4956374 0.027921006 -0.15690993 0.6868528 0.4454729 -0.010442078
-0.07083486 -0.10929141 -0.124969006 0.5683612 -0.13346215 0.6896045 0.050235316 0.04592122
00000000: cdc3 9cbd d864 ecbc d7ad c3bd 3210 dbbd
00000010: 9e37 68bd d70b 01be 74a3 1b3d 4599 0f3e
00000020: 248f 3dbd 9a6c fbbd 029c 973d 4a39 b33d
00000030: b403 32bd 82ec b33d c1b8 133e 231b f3bd
00000040: 933c 303e c0ce 42bb 2421 1fbe 4028 e9bb
00000050: 6810 08bd 5a35 a23d b314 dabd b80a 883d
00000060: 3d6d d4bd a74c 2dbe 039d 1f3e e0e9 0fbd
00000070: f48a 733d 805e 033c e90b c6bd b0d7 0cbe
00000080: 4833 a4bc 6245 d83d fab6 c43d 8097 4bbb
00000090: 0fef 0f3e ee1f 833d 883e ba3c 3614 c83d
000000a0: 408d c2bc f5f1 063e 1aa7 30be f0d4 3cbc
000000b0: 3edf 98bd 3415 82bd 0075 903a 83c2 ddbf
000000c0: 0e28 05be 9e77 fe3d 61da 1b3f dcb7 47bd
000000d0: f620 d6bd 2c09 40bd 1f86 0d3e 30bd 3a3d
000000e0: 6120 323e 4a91 bdbd aad6 e3bd cced 32be
000000f0: 0173 9cbd 369c e6bd 1a1f b13d ba05 d73d
00000100: 35db 1ebe ce0e c83d 3084 743d 7d74 2fbe
00000110: 9926 293e 1fef ecbd a868 fe3c a678 2bbe
00000120: e349 033e 05a7 343e 482c a53c 7055 5a3c
00000130: 16dd de3d 0033 6a3b 3162 acbd 73a1 03be
00000140: f0ae 52bd f02a febc 0dbe ba3e d8a9 73bd
00000150: 6ae4 01be 4849 37bd 5216 2bbe 6b4e cbbd
00000160: 1aed eabd d691 a03d 3abf 63bd 476e 25be
00000170: 8b1e d6bd 926d 8b3d 18fc b1bd 5ae5 c23d
00000180: 484a bfbd 60ea 46bc 3ddd 38bf b8df 073e
00000190: cd5d 0c3e 0c8b f8be 3df6 38bf c008 b33b
000001a0: c0ec 0cbf 166a e4be 7d2b 2abf fb69 30bf
000001b0: 1581 dabe c072 f1be b461 f9be 5ab7 dabf
000001c0: 0c10 23bf 82fd a33d 5e25 083e a207 dc3d
000001d0: 89da eabe 1f20 38bf f84e 39bf 28a3 01bf
000001e0: e0eb a5bc 33bc d4be 36ee e3be 42de dabe
000001f0: 8736 e6be 4b09 42bf 933e 04bf 44a2 453d
00000200: 4dd5 163e 5151 033f d8cc 2abe 520f 163f
00000210: 4027 4abd af52 2c3f 97cc 35bf 7b3c 113f
00000220: 8085 9fbb fe88 cf3e f69c 21be db81 003f
00000230: c9d2 11be 64ea d83e aec5 003f 5839 1cbe
00000240: 9bad 003f fd93 c5bd ce29 d5bd 22c0 ed3d
00000250: c70b 043f 949a 443f 4f77 2f3e cb50 333e
00000260: e8f3 b93e 64f8 f5be 55a0 313f 76ee f43e
00000270: 350c f0be 7623 20be d062 583d a457 7f3d
00000280: c81d a83c 48fc db3c d074 553d 3ae7 14be
00000290: b483 6f3d 9d24 233e 9d1f 163f 5d09 283e
000002a0: 6abd 263f 305e 11be aad1 0d3f cb47 203f
000002b0: 3077 493c b0bd fd3e b4b2 923d 00c4 e2bf
000002c0: a56a 84bd 4efc b93d 6654 413f 00f5 d0bb
000002d0: d49a 05bd 26a7 fb3e 8c09 013f 888c a73c
000002e0: 45aa f4bd 0285 c03d 90ec 5b3c 3af9 423f
000002f0: 97ce 0c3f 7364 423f c0c5 3b3c 680b 99bc
00000300: 60e3 9a3b 0ee8 d13d 1a0d 81be 5c1e 77be
00000310: 16ed bcbe 5e2e cb3e 1062 02bf 57b4 dcbd
00000320: 8afe 483d 4202 edbd bcce 493f dc41 eebe
00000330: aaff 5bbd 0df9 253f 915c eb3e f4b2 32bf
00000340: d4dc 9c3d 583e bcbe 7356 d6bd be5d c5be
00000350: 0494 113f f3d9 3cbe 43c5 d63d 7969 223f
00000360: 44d1 873d aa1d 12be 731d 953b 4b15 cfbe
00000370: 97ef a8be 1197 163f 809b 293f ed33 eabd
00000380: ed9f 223e 40a4 3d3d 58ad debc a472 63bd
00000390: 3872 0f3d 1f34 023f 2a9e 973d e680 ac3d
000003a0: e275 7dbd be9d f03e 131f c9bd 80e4 2ebb
000003b0: d0f4 2dbe afdc f73e 80dd 5ebc 7ed7 dabf
000003c0: f861 ebbc 9953 1bbe 2fc4 fd3e 98ba e43c
000003d0: ffac 20be 96d5 2f3f 0615 e43e 4015 2bbc
000003e0: de11 91bd 2dd4 dfbd c0ef ffbd 1f80 113f
000003f0: 4daa 08be ec89 303f 8cc3 4d3d e417 3c3d

layer_out.bias f4 [104]
0.9362755 1.4007286 0.83137673 1.4116998 1.7875468 1.6829921 2.2761755 1.6412884
0.7900064 1.7403387 1.0773667 1.7249953 0.31819412 0.70411885 1.1578554 1.3273692
1.331977 0.5421088 0.11669277 0.39880213 -0.2970064 0.49846762 0.5534579 0.27686
1.5091293 0.50970465 1.0644256 0.5491817 0.024206704 0.7726368 0.5407019 0.3793321
0.121276006 0.8574731 1.4688542 1.1014826 0.5498344 0.64840347 0.44563362 1.4142355
3.4595344 -22.591932 -22.592104 -22.59618 -22.592527 -22.592772 -22.597145 -22.594463
-22.594212 -22.595888 -22.580208 -22.592201 -22.572514 -22.595917 -22.594992 -22.595041
-22.59677 -22.597282 -22.597147 -22.598724 -22.582048 -22.58247 -22.572206 -22.596764
-22.592117 -22.591764 -22.597166 -22.594473 -22.563757 -22.591745 -22.59414 -22.594332
-22.572504 -22.597965 -22.593687 -22.593521 -22.59187 -22.592966 -22.598488 -22.595287
-22.598572 -22.598604 -22.594748 -22.59804 -22.594202 -22.59652 -22.572151 -22.591568
-22.592714 -22.5916 -22.594074 -22.593863 -22.587095 -22.592295 -22.597715 -22.594063
-22.597595 -22.592186 -22.59716 -22.592834 -22.59101 -22.591852 -22.598188 -22.593092
00000000: c0af 6f3f 134b b33f 1bd5 543f 94b2 b43f
00000010: 55ce e43f 496c d73f dcac 1140 bd15 d23f
00000020: dc3d 4a3f 6bc3 de3f 27e7 893f a5cc dc3f
00000030: 57ea a23e 2241 343f 9b34 943f 3ce7 a93f
00000040: 397e aa3f a4c7 0a3f 9efc ee3d cb2f cc3e
00000050: 3911 98be 2637 ff3e 6baf 0d3f 98c0 8d3e
00000060: 262b c13f 017c 023f 193f 883f 2c97 0c3f
00000070: 234d c63c 86cb 453f 716b 0a3f d137 c23e
00000080: 8e5f f83d 5b83 5b3f 6a03 bc3f 62fd 8c3f
00000090: f2c1 0c3f c5fd 253f 172a e43e ab05 b53f
000000a0: 0369 5d40 47bc b4c1 a1bc b4c1 fac4 b4c1
000000b0: 7fbd b4c1 ffbd b4c1 f4c6 b4c1 76c1 b4c1
000000c0: f2c0 b4c1 61c4 b4c1 44a4 b4c1 d4bc b4c1
000000d0: 8294 b4c1 70c4 b4c1 8bc2 b4c1 a5c2 b4c1
000000e0: 2fc6 b4c1 3cc7 b4c1 f5c6 b4c1 30ca b4c1
000000f0: 09a8 b4c1 e6a8 b4c1 e193 b4c1 2cc6 b4c1
00000100: a8bc b4c1 efbb b4c1 ffc6 b4c1 7bc1 b4c1
00000110: 9382 b4c1 e5bb b4c1 ccc0 b4c1 31c1 b4c1
00000120: 7d94 b4c1 a2c8 b4c1 dfbf b4c1 88bf b4c1
00000130: 26bc b4c1 65be b4c1 b4c9 b4c1 26c3 b4c1
00000140: e0c9 b4c1 f1c9 b4c1 0bc2 b4c1 c9c8 b4c1
00000150: edc0 b4c1 acc5 b4c1 c493 b4c1 88bb b4c1
00000160: e1bd b4c1 99bb b4c1 aac0 b4c1 3bc0 b4c1
00000170: 5fb2 b4c1 05bd b4c1 1fc8 b4c1 a4c0 b4c1
00000180: e0c7 b4c1 ccbc b4c1 fcc6 b4c1 20be b4c1
00000190: 63ba b4c1 1dbc b4c1 17c9 b4c1 a7be b4c1
